…
r: Input 0 of layer \"sequential_5\" is incompatible with the layer: expected shape=(None, 128, 128, 3), found shape=(None, 64, 64, 3)\n```", "```py\ndef resize_image(image, label):\n  resized_image = tf.image.resize(image, size=target_shape)\n  return resized_image, label\n\n# Apply the resize function to the entire dataset\nresized_dataset = sample_dataset.map(resize_image)\n```", "```py\nValueError: Shapes (None, 10) and (None, 28, 28, 10) are incompatible\n```", "```py\nLayer (type) Output Shape Param #\n=================================================================\nconv2d_15 (Conv2D) (None, 126, 126, 32) 896\nmax_pooling2d_10 (MaxPooli (None, 63, 63, 32) 0\nng2D)\nconv2d_16 (Conv2D) (None, 61, 61, 64) 18496\nmax_pooling2d_11 (MaxPooling2D) (None, 30, 30, 64) 0\nconv2d_17 (Conv2D) (None, 28, 28, 64) 36928\nflatten_5 (Flatten) (None, 50176) 0\ndense_13 (Dense) (None, 64) 3211328\ndense_14 (Dense) (None, 10) 650\n=================================================================\nTotal params: 3268298 (12.47 MB)\nTrainable params: 3268298 (12.47 MB)\nNon-trainable params: 0 (0.00 Byte)\n```", "```py\n###################Input Shape and Datatype#####################\n(None, 128, 128, 3) <dtype: 'float32'>\n###################Output Shape and Datatype#####################\n(None, 10) <dtype: 'float32'>\n####
…
