…
 model\n```", "```py\nargs = ModelArgs(\n    model_input_dims=128,\n    model_states=32,\n    num_layers=12,\n    dropout_rate=0.2,\n    vocab_size=vocab_size,\n    num_classes=1,\n    loss='binary_crossentropy',\n)\nmodel = init_model(args)\nmodel.summary()\n```", "```py\nModel: \"Mamba_ka_Mamba\"\n_________________________________________________________________\n Layer (type)                Output Shape              Param #   \n=================================================================\n input_ids (InputLayer)      [(None, 128)]             0         \n\n embedding_2 (Embedding)     (None, 128, 128)          3906816   \n\n Residual_0 (ResidualBlock)  (None, 128, 128)          129024    \n\n dropout_24 (Dropout)        (None, 128, 128)          0         \n\n Residual_1 (ResidualBlock)  (None, 128, 128)          129024    \n\n dropout_25 (Dropout)        (None, 128, 128)          0\n\n ... (I have shrinked this to make it more readable)\n\n dropout_35 (Dropout)        (None, 128, 128)          0         \n\n layer_normalization_38 (La  (None, 128, 128)          256       \n yerNormalization)                                               \n\n flatten_2 (Flatten)         (None, 16384)             0         \n\n dense_148 (Dense)           (None, 1024)              16778240  \n\n dense_149 (Dense)           (None, 1)                 1025      \n\n=================================================================\nTotal params: 22234625 (84.82 MB)\nTrainable params: 22234625 (84.82 MB)\nNon-trainable params: 0 (0.00 Byte)\n_________________________________________________________________\n```", "```py\ntrain_labels, test_labels = [], []\ntrain_ids = np.zeros((len(dataset['train']), args.seq_length))\ntest_ids = np.zeros((len(datase
…
